trained_model/IEGMNet_cbr.onnx (onnx, 31111 bytes, 13 tensors)

fc2.0.weight f4 [2, 1]
0	0xc0b09d96	-5.5192366
1	0x40bc4b18	5.8841667

fc2.0.bias f4 [2]
0	0x40b064b9	5.5122952
1	0xc0a92745	-5.2860436

onnx::Conv_66 f4 [3, 1, 6]
0	0xc04ada66	-3.16958
1	0xc0977ac1	-4.7337346
2	0x40342fd4	2.8154192
3	0x40398a1d	2.8990548
4	0x4056cd7f	3.3562925
5	0x40be7c12	5.9526453
6	0x40e0f125	7.0294366
7	0xc19bed64	-19.490913
8	0x4194be92	18.593052
9	0x40cf0a0d	6.469977
10	0xc1973846	-18.902477
11	0x4138ea18	11.557152
12	0x40f7e9d3	7.747293
13	0x3e7a5a40	0.2444849
14	0x3e8b5e90	0.27220583
15	0xc026be5c	-2.6053686
16	0xc0b4e02d	-5.652365
17	0xc0870755	-4.219645

onnx::Conv_67 f4 [3]
0	0x3e61313f	0.21991442
1	0xbe9b8a0a	-0.30378753
2	0x3d812ec7	0.0630775

onnx::Conv_69 f4 [2, 3, 5]
0	0xbf0a63b4	-0.54058385
1	0xbf0e3c67	-0.55560917
2	0xbeee1298	-0.4649856
3	0xbf035f2a	-0.51317084
4	0xbe99a0f6	-0.30005616
5	0x3ec96918	0.39337993
6	0x3ef8fd80	0.48630905
7	0x3ed05384	0.40688717
8	0x3ee6a6ef	0.45049235
9	0x3ec6cf05	0.38829818
10	0xbeef73b1	-0.46767953
11	0xbf0a6e09	-0.5407415
12	0xbebc40ca	-0.3676818
13	0xbec2b207	-0.3802645
14	0xbf0c8f46	-0.5490612
15	0x3b74cc32	0.0037353155
16	0x3bd89cd4	0.0066104922
17	0xbb14e50b	-0.0022719528
18	0xbb74ac6a	-0.0037334212
19	0xbb70e34d	-0.0036756576
20	0x3beb6525	0.007183688
21	0x3bb09924	0.0053893495
22	0x3c0b951c	0.008519437
23	0xba854412	-0.0010167381
24	0xbbc3cc8a	-0.0059753107
25	0xbc33d999	-0.010977172
26	0x3b77528c	0.003773841
27	0x3beaf349	0.007170115
28	0x3c495bad	0.012289924
29	0x3c569430	0.013096854

onnx::Conv_70 f4 [2]
0	0x40200e73	2.500882
1	0xbfa9efd0	-1.327631

onnx::Conv_72 f4 [2, 2, 4]
0	0xbfff9e7e	-1.9970243
1	0xbfcbc56c	-1.5919623
2	0xbf67de08	-0.9057317
3	0xbf9e9cc1	-1.2391587
4	0x3e148334	0.14503175
5	0x3ea9f347	0.33193418
6	0xbe50ee22	-0.2040334
7	0xbf18f511	-0.5974894
8	0xbf03e072	-0.5151435
9	0x3db54b64	0.0885227
10	0xbd7cc3e5	-0.061710257
11	0xbfdec5c5	-1.7404104
12	0xbe483807	-0.19552623
13	0xbba20429	-0.0049443436
14	0xbe96abb9	-0.2942789
15	0xbe1ae830	-0.15127635

onnx::Conv_73 f4 [2]
0	0x4118bc61	9.545991
1	0x4054ed25	3.3269742

onnx::Conv_75 f4 [2, 2, 4]
0	0x3cb0b5b5	0.02157102
1	0x3b8c613d	0.0042840526
2	0xbc357c71	-0.011077032
3	0xbc3c5e80	-0.01149714
4	0x3be96c71	0.007123523
5	0xbce36d46	-0.027762067
6	0x3cca224f	0.024674563
7	0xbda81c54	-0.08208528
8	0xbef47063	-0.47741994
9	0xbe5c8d62	-0.21538308
10	0xbe3b5d5e	-0.18297336
11	0xbe6a7025	-0.22894342
12	0x3d9cc31c	0.07654402
13	0x3e42c55b	0.19020598
14	0x3d1e7972	0.038690038
15	0xbef8e683	-0.48613366

onnx::Conv_76 f4 [2]
0	0x3f1458dd	0.57948095
1	0x3f945abd	1.1590191

onnx::Conv_78 f4 [8, 2, 4]
0	0xbe15c34a	-0.14625278
1	0xbc485a88	-0.012228616
2	0xbb822342	-0.003971488
3	0xbc87fc2d	-0.016599739
4	0xbe6232cb	-0.22089688
5	0xbe4a6fed	-0.19769259
6	0xbe65001c	-0.22363323
7	0xbe234637	-0.15944754
8	0xbf2c1eaa	-0.6723429
9	0xbf4dc42f	-0.8037748
10	0xbf4d5ed9	-0.8022285
11	0x3e22717e	0.15863606
12	0x3fb8e58f	1.4445056
13	0x3ea5320f	0.32264754
14	0x3f1cedfe	0.6130065
15	0x3fd94eaa	1.6977131
16	0xbf21f72b	-0.63267773
17	0xbe559b9b	-0.2086014
18	0xbf05541c	-0.52081466
19	0x3f36267e	0.71152484
20	0x3fdf46bc	1.7443461
21	0x3eddda0b	0.43330416
22	0x3f47be3b	0.78024644
23	0x3fd77aa9	1.6834308
24	0xbd9a3ad2	-0.0753075
25	0xbd752fb8	-0.05985996
26	0x3c504e85	0.012714033
27	0x3c5ae98b	0.013361345
28	0x3c6f16e7	0.014592863
29	0x3d6427d4	0.055702046
30	0x3b1ada16	0.0023628525
31	0xbca030c6	-0.019554507
32	0xbecbbc9b	-0.39792332
33	0xbed77b6a	-0.42086345
34	0xbf14390a	-0.57899535
35	0x3f02e6ce	0.5113343
36	0x3f9c84ef	1.2228068
37	0x3ea6ccaf	0.32578036
38	0x3f28414f	0.65724653
39	0x3f9c073f	1.2189711
40	0xbf0ac27f	-0.5420303
41	0x3da1e02d	0.07904086
42	0xbcecd129	-0.02890833
43	0x3f630997	0.8868651
44	0x3fb8c73a	1.4435799
45	0x3f5be09c	0.858896
46	0x3f03aa8d	0.51432115
47	0x3fc67670	1.5504894
48	0xbfa4b2ae	-1.2867029
49	0xbf6fe598	-0.9370971
50	0xbf10a12b	-0.5649592
51	0x3f5fff85	0.87499267
52	0x3fd34aa3	1.6507152
53	0x3f04aabf	0.5182304
54	0x3ee9f2ed	0.4569315
55	0x4010a1b2	2.259869
56	0xbcbc06a7	-0.02295239
57	0xbea17d94	-0.3154112
58	0xbc82f999	-0.015988158
59	0xbd216fec	-0.039413378
60	0x3d83a6cf	0.064283006
61	0x3e184bfc	0.14872736
62	0x3c38573d	0.011251268
63	0x3c7e670d	0.015527499

onnx::Conv_79 f4 [8]
0	0xbe046d98	-0.12932432
1	0xc019a11c	-2.4004583
2	0xc06e3b37	-3.7223642
3	0xbf5ff158	-0.87477636
4	0xc0391780	-2.8920593
5	0xc07d0078	-3.9531536
6	0xc034ba8d	-2.8238862
7	0xbf2ae277	-0.6675181

onnx::MatMul_80 f4 [296, 1]
0	0xbe2e970e	-0.1704981
1	0xbf8b17ba	-1.0866616
2	0x3e3fc635	0.18727954
3	0xbf4d39e3	-0.80166453
4	0x3f15ed71	0.5856543
5	0xbed1e23f	-0.40992925
6	0x3ea3f4fe	0.32022852
7	0xbe438d3d	-0.19096847
8	0x3f48b4bf	0.78400797
9	0x3f80076a	1.0002263
10	0x3e9c8b27	0.30574915
11	0x3f654736	0.89561784
12	0x3e98d938	0.29853225
13	0xbf963a31	-1.1736509
14	0x3fb63c74	1.4237199
15	0xbf16bf92	-0.58886063
16	0x3fbd1e60	1.4774895
17	0x3fb89a6a	1.4422123
18	0xbf23dce3	-0.6400892
19	0xc0049ef3	-2.0722015
20	0x40042f04	2.0653696
21	0xbe781bff	-0.2422943
22	0x3eb9986d	0.36249104
23	0x3fde9d10	1.7391682
24	0x3f9f5124	1.2446637
25	0xbfbcef61	-1.4760553
26	0x3d05cc89	0.032665763
27	0x3f3950c5	0.7238887
28	0x3ebdae10	0.37046862
29	0xbe5f52fa	-0.21808997
30	0xbf79a8b9	-0.97523075
31	0x3f92710e	1.1440752
32	0xbd8c56d7	-0.06852501
33	0x3f551639	0.83237034
34	0x3fa601e6	1.2969329
35	0x3d4f08b0	0.050545394
36	0xbff0f5f4	-1.8825059
37	0xc025a11d	-2.5879586
38	0xc070aa62	-3.7603993
39	0xc023c2ec	-2.558772
40	0xc03114d1	-2.7668955
41	0xc013e6a8	-2.3109531
42	0xc01ef65c	-2.4837866
43	0xbfb0cf9e	-1.381336
44	0xc05bcda9	-3.4344275
45	0xbfed5064	-1.8540158
46	0xc07c656e	-3.9436908
47	0xc07930e1	-3.8936083
48	0xbfb7e1ba	-1.4365761
49	0xc083bfcb	-4.117162
50	0xc056c09d	-3.3555062
51	0xc067f501	-3.6243289
52	0xc04efd0c	-3.2341948
53	0xc0a77062	-5.2324686
54	0xc076d153	-3.8565261
55	0xc07288f0	-3.789608
56	0xc027a6c1	-2.6195529
57	0xc09ec190	-4.961128
58	0xc053cf8a	-3.3095422
59	0xc0833942	-4.1007395
60	0xc0980a4f	-4.7512584
61	0xc07c5125	-3.9424527
62	0xc0595397	-3.395727
63	0xbfde750f	-1.7379473
64	0xc086fd0e	-4.2183905
65	0xc0408112	-3.0078778
66	0xc09fc852	-4.993203
67	0xc09bf6e8	-4.87389
68	0xc083f92c	-4.1241665
69	0xc0685d77	-3.6307046
70	0xc05b0dec	-3.4227247
71	0xc01a9da9	-2.4158728
72	0xc099a983	-4.8019423
73	0xc0363825	-2.8471768
74	0xc0315319	-2.7706969
75	0xbfa3285e	-1.2746694
76	0xbf3ad8f4	-0.72987294
77	0xc01bf14b	-2.4366024
78	0xc0368685	-2.8519604
79	0xbfd6d325	-1.6783186
80	0xbfdfbf54	-1.7480264
81	0xc004c837	-2.0747201
82	0xc0147301	-2.3195193
83	0xc03c85a4	-2.9456568
84	0xc01a0e29	-2.4071143
85	0xbfaacfcb	-1.3344663
86	0xc010e340	-2.2638702
87	0xc029e576	-2.6546302
88	0xbfd4a1c8	-1.6611872
89	0xc02d179b	-2.7045658
90	0xc03c4a2e	-2.9420276
91	0xc002b973	-2.042569
92	0xc06d32ed	-3.7062333
93	0xc06ce599	-3.7015135
94	0xc011f11c	-2.2803411
95	0xc06d8f54	-3.711873
96	0xc042f100	-3.0459595
97	0xc05954f9	-3.3958113
98	0xc0623f0a	-3.5350976
99	0xc05e1a79	-3.4703658
100	0xc03b2fd4	-2.9247942
101	0xbfe6066e	-1.7970712
102	0xc001f1d5	-2.0303853
103	0xc06e3034	-3.721692
104	0xc00d2c1d	-2.2058175
105	0xbfc1ad37	-1.5130986
106	0xc06fabf8	-3.7448711
107	0xc04930e2	-3.1436086
108	0xc0304d29	-2.7547095
109	0xbfd4cbad	-1.6624657
110	0xc02a76cb	-2.6635005
111	0xbfc68a2d	-1.5510918
112	0x3fbd8521	1.4806253
113	0x3f80d8df	1.0066184
114	0xbe7f578d	-0.24935742
115	0xbeb11870	-0.34588957
116	0x3f9ab328	1.2085924
117	0x3f18be47	0.5966534
118	0x3f41e482	0.757393
119	0xbf0d217e	-0.5512923
120	0x3fb3dcc2	1.4051745
121	0x3df13650	0.117779374
122	0xbf801f2f	-1.0009516
123	0xbead99c8	-0.33906388
124	0xbf4447a3	-0.7667181
125	0x3f83f47f	1.0308989
126	0xbfafafa7	-1.372548
127	0xbf1999dd	-0.600004
128	0x40114118	2.269598
129	0xbf84971d	-1.0358616
130	0xc01d5e0d	-2.4588654
131	0x3ff04681	1.8771516
132	0xbd8d42a5	-0.06897477
133	0xc00008b0	-2.0005302
134	0x3e0e5777	0.13900553
135	0x404bfbcf	3.1872442
136	0xbfc3a82c	-1.5285697
137	0xbfa37d6f	-1.2772654
138	0x3fa6ae19	1.302188
139	0xbf45f0cf	-0.7732057
140	0xbfe349e4	-1.7756925
141	0xbf08c4ca	-0.53425276
142	0x3f03668f	0.51328367
143	0xbf92b34d	-1.1460968
144	0xbeb157bb	-0.34637246
145	0x3e598c8c	0.2124502
146	0x3eee962a	0.4659894
147	0xbf8e7592	-1.112963
148	0xbfb9fcf1	-1.4530317
149	0xc0277f4d	-2.6171448
150	0xbfffd9f1	-1.9988385
151	0xc0472e15	-3.1121876
152	0xc00bc76a	-2.1840463
153	0xbff45d97	-1.9091061
154	0xc02b7b6c	-2.679408
155	0xc02dbbd0	-2.7145882
156	0xc079da4d	-3.903949
157	0xc085822e	-4.172141
158	0xc087ebdd	-4.247542
159	0xc08bce8c	-4.3689632
160	0xc085c82b	-4.1806846
161	0xc04b18fb	-3.1733997
162	0xc05cb6f7	-3.4486673
163	0xc0abe746	-5.3719816
164	0xc03216a2	-2.7826314
165	0xc020298b	-2.5025356
166	0xc092d393	-4.588327
167	0xc0662d71	-3.5965235
168	0xc082714d	-4.0763307
169	0xc06a6478	-3.6623821
170	0xc06db236	-3.7140021
171	0xc088d5ef	-4.276115
172	0xc05d4468	-3.4573002
173	0xc081db2d	-4.058005
174	0xc0101e47	-2.251848
175	0xc08897fd	-4.2685533
176	0xc0a89980	-5.268738
177	0xc058b7ea	-3.3862252
178	0xc072c797	-3.793432
179	0xc08dc87f	-4.4307246
180	0xc02da4dc	-2.7131872
181	0xc07b48b2	-3.926312
182	0xc0a5739b	-5.170362
183	0xc070022e	-3.750133
184	0xc0244160	-2.5664902
185	0xc067c04b	-3.6211116
186	0xc00718e1	-2.1108935
187	0xbfb3e451	-1.4054052
188	0xc01e6ab7	-2.4752634
189	0xc0698382	-3.6486516
190	0xc084c1fc	-4.1486797
191	0xc01b3a14	-2.4254198
192	0xc047c6c1	-3.121506
193	0xc03e4634	-2.9730349
194	0xc07365ea	-3.8030953
195	0xc078146b	-3.8762462
196	0xc056e190	-3.3575172
197	0xc005d338	-2.0910168
198	0xc0492f26	-3.1435027
199	0xc00aaed3	-2.1669204
200	0xbfa7cae0	-1.3108788
201	0xc014652c	-2.318675
202	0xc0889756	-4.2684736
203	0xc0a020b9	-5.0039945
204	0xc0757051	-3.8349802
205	0xc0a4c585	-5.1491113
206	0xc05ec887	-3.4809892
207	0xc08cfc60	-4.4058075
208	0xc02b99ed	-2.68127
209	0xc06e5a92	-3.724278
210	0xc00b9894	-2.1811876
211	0xc0872a03	-4.2238784
212	0xc046b37a	-3.1047044
213	0xc09eb542	-4.959626
214	0xc08615ec	-4.190176
215	0xc09945a5	-4.7897515
216	0xc0bef116	-5.9669294
217	0xc0d8e1f9	-6.7775846
218	0xc0911910	-4.5343094
219	0xc06e3274	-3.7218294
220	0xc0173226	-2.3624358
221	0xc049f425	-3.1555264
222	0xbf330594	-0.69930387
223	0xc005cf21	-2.0907671
224	0xbfa70c9f	-1.3050727
225	0xc056385a	-3.3471894
226	0xc08024db	-4.004499
227	0xc023e46a	-2.5608163
228	0xc0341094	-2.8135118
229	0xc0584535	-3.379224
230	0xc053ea23	-3.3111656
231	0xc0465ee5	-3.099542
232	0xc07d77fd	-3.9604485
233	0xc03cde19	-2.9510558
234	0xc0762e01	-3.8465579
235	0xc07776d6	-3.8666282
236	0xc0046448	-2.0686207
237	0xc082d5d7	-4.0886035
238	0xc0882306	-4.2542753
239	0xc099fdf2	-4.812249
240	0xc08aadeb	-4.33373
241	0xc04715b2	-3.1106992
242	0xc0791d89	-3.8924277
243	0xc03801e8	-2.8751163
244	0xc0734f4e	-3.8017154
245	0xc098ab50	-4.770912
246	0xc0899842	-4.299836
247	0xc08c77d8	-4.3896294
248	0xc0936f28	-4.607319
249	0xc09c1e54	-4.878702
250	0xc0643909	-3.5659811
251	0xc0302116	-2.7520194
252	0xc086638e	-4.1996527
253	0xc06716e1	-3.6107714
254	0xc02c080e	-2.6879916
255	0xc0895895	-4.292063
